Beispiel-Modelle/Modelle/katzeOderHundGrößeGewicht.pth (torch, 19102 bytes, 39 tensors)

fc1.weight f4 [10, 2]
000000 93 02 db bd 0d ea 01 3f fe 80 0c bf b7 3c 87 3d
       -0.1069385 0.5074776 -0.54884326 0.06603377
000010 00 08 d1 ba 06 41 13 bf 94 fe 1e bf 93 19 b6 3e
       -0.0015947819 -0.5752109 -0.62107205 0.35566387
000020 dd 4e 1b 3e 48 74 20 3f 2b 59 f5 3e 94 09 c0 be
       0.15166803 0.6267743 0.47919592 -0.37507308
000030 e7 99 9a be cc 88 19 be 9c af 01 bf 58 7e 43 be
       -0.30195543 -0.1499359 -0.50658584 -0.19091165
000040 04 3c 37 bf 20 35 c2 3d 37 e6 ef 3e 59 c4 2c 3e
       -0.7157595 0.09482789 0.46855327 0.16871776

fc1.bias f4 [10]
000000 ac b1 97 bf cb 25 0f bf fc f0 8c be ec de e9 3f
       -1.1851096 -0.5591704 -0.27527606 1.8271155
000010 9b 62 28 bf a4 e2 16 3f 7b 9b 2a 3f 5e 25 a8 3e
       -0.6577546 0.58939576 0.66643494 0.3284101
000020 c2 71 ef 3d 24 1c 53 bf
       0.116916195 -0.82464814

fc2.weight f4 [10, 10]
000000 fd 5a 5c 3d de a7 e8 3d fc bb 91 be db 23 45 be
       0.05379771 0.11360143 -0.28463733 -0.19251959
000010 c3 69 d1 bd 28 ac e2 3d bc 89 1d 3e f0 c2 40 be
       -0.102252506 0.110679924 0.15384573 -0.18824363
000020 53 0a a1 be 83 90 e6 bd 5d 86 31 be 38 ee bb 3d
       -0.3145319 -0.11258032 -0.17336412 0.09176296
000030 88 1a b2 bd da 1b 2a 3e 49 9f 51 bd 33 dc 81 3e
       -0.08696467 0.16612187 -0.051177297 0.2536331
000040 84 7a 61 be de 89 01 3e d8 56 1a 3d 37 22 44 be
       -0.22019392 0.12650248 0.037680477 -0.19153677
000050 4d 90 af 3d e3 f9 9f be d5 e5 82 3e b0 ea 10 bd
       0.08572445 -0.31245336 0.25565973 -0.035380065
000060 70 46 30 bd 74 bf 15 3e f0 0b d7 3c 06 ce 0a 3e
       -0.043035924 0.14623815 0.02625081 0.13555154
000070 56 fb 4c 3e 29 da a0 be bd 52 b4 3e ab df e6 3d
       0.20017752 -0.31416443 0.35219374 0.1127313
000080 56 9b 96 bd 28 ce c9 3f df 8a bd 3e 53 d2 54 be
       -0.07353847 1.5766039 0.37020013 -0.20783357
000090 02 3b 5a be 9e f6 48 3e e4 e7 a9 bc 33 10 1f 3e
       -0.21311572 0.19625327 -0.020740457 0.15533523
0000a0 c3 7b 36 bc 68 43 b2 3d 1a 1c 77 3e d8 90 8f bf
       -0.0111379055 0.08704263 0.24131814 -1.1216078
0000b0 1f 6e dc bd 3d ae 0b 3e a0 d6 8d 3c 10 8e 0e bd
       -0.107631914 0.13640685 0.017314255 -0.03480345
0000c0 f7 37 8e be a3 43 a3 3e 88 fd 7b 3d a9 ac 7f 3d
       -0.27777073 0.3188754 0.061521083 0.06242052
0000d0 78 ec 04 be 99 de c0 3f bf fa 5e 3e d9 5f ef bc
       -0.1298083 1.5067931 0.2177534 -0.029220508
0000e0 35 77 8a 3e 60 90 95 bc b8 cc 31 3d fb b0 4d 3e
       0.27044073 -0.01825732 0.043408126 0.20087044
0000f0 c4 37 f9 bd 6b 63 a8 3c e8 74 d8 3d 27 14 14 40
       -0.121688396 0.020555219 0.10569173 2.31373
000100 a0 cc 67 3c 29 a0 8d 3e 92 d8 51 3e 4c 26 b7 3d
       0.0141479075 0.27661255 0.20492771 0.089428514
000110 d9 3e 33 3e 91 71 9a 3d 94 a1 cc bb d8 57 c3 3e
       0.17504443 0.07541192 -0.0062448476 0.38152957
000120 e3 76 95 3e 2e 94 f4 3f 94 ce 3e bd c5 12 78 3e
       0.29192266 1.9107721 -0.046583727 0.2422591
000130 9a 08 7c be 8a ef 6d 3e 6f e8 80 3e e6 f7 17 3e
       -0.24612656 0.23235908 0.25177333 0.1484066
000140 66 e2 0a 3e f7 05 75 bd ce fd 66 3e 71 9e ba 3f
       0.13562927 -0.05982014 0.22557756 1.4579602
000150 4f e4 70 3e 77 aa 31 3e c8 4e 97 be 10 eb ab 3c
       0.23524593 0.17350183 -0.29552293 0.02098611
000160 36 3e 02 3d c9 a3 a1 3e f4 22 b2 bd cb a2 ab 3e
       0.03179761 0.3157027 -0.08698073 0.3352264
000170 36 ec 49 3e d9 06 e5 3f 17 02 d5 3e a8 21 47 3d
       0.19719014 1.7892715 0.41603157 0.04861608
000180 3c c0 92 be 6a 29 67 3e ff 99 0e 3e 7a 78 97 3d
       -0.28662288 0.22574392 0.13925932 0.07396026

fc2.bias f4 [10]
000000 f1 66 a0 be f4 75 c2 ba 4e e6 41 be 4e d3 a0 be
       -0.31328538 -0.0014836178 -0.1893551 -0.31411213
000010 62 61 6d 3f 2a f0 de be 6e 98 7c bd 1d ad 5e bf
       0.9272672 -0.43542606 -0.061668806 -0.869829
000020 84 91 44 bf b3 eb 46 bf
       -0.7678454 -0.777034

fc3.weight f4 [10, 10]
000000 ee ea fd bd 06 d3 16 3e 27 fe ee 3d 41 bb 88 3e
       -0.12398325 0.14728937 0.116695695 0.26705363
000010 98 d5 bf bd 34 63 8c be ab 2a 55 bd 20 bc 9b 3e
       -0.09366912 -0.27419436 -0.052042644 0.30416965
000020 82 f7 65 3e 15 98 16 3e 82 7d 4d bd ed 8b ed be
       0.22457698 0.14706452 -0.05016852 -0.46395817
000030 b0 ef 1a be ab fa 8d 3e b2 63 40 be e9 cf 6e 3e
       -0.15130496 0.27730307 -0.1878803 0.23321499
000040 ed 49 3a 3e a9 20 80 3c e1 15 92 3e d5 f4 9d 3c
       0.18192263 0.015640574 0.28532317 0.019281784
000050 20 21 2c bc 40 b1 f6 bd f8 94 99 be c8 d8 50 3d
       -0.0105059445 -0.120455265 -0.29996467 0.05098799
000060 80 25 bb 3d 34 09 23 be 0a a5 46 3e b3 3d 91 be
       0.09138012 -0.1592148 0.19398895 -0.28367385
000070 7d 13 9c be 60 01 48 be f5 2f a4 bc af f0 41 be
       -0.30483618 -0.19531775 -0.020042399 -0.1893947
000080 f2 19 f5 bc 94 29 a5 3e 19 3b a7 be f8 a2 41 3e
       -0.029919598 0.32258284 -0.32662275 0.18909824
000090 66 cc 19 3e ba bf 89 3e 7d 9a ea 3e 45 c3 bf 3e
       0.15019378 0.26904088 0.4582099 0.37453666
0000a0 64 4a 4c be 85 c7 0e be 71 73 bc bd 43 d4 93 be
       -0.19950253 -0.13943298 -0.09201706 -0.2887288
0000b0 52 c1 a7 3e d1 8d 9e 3c 69 22 ca 3e bb 96 b6 3e
       0.3276468 0.019354733 0.39479378 0.35661873
0000c0 80 f9 4c 3c 35 bc 76 3c 70 19 9b 3d f1 9e c0 bc
       0.012510657 0.0150595205 0.07573211 -0.02351329
0000d0 51 a6 82 3e a1 70 96 be 60 7a fd 3d f9 63 77 be
       0.25517514 -0.29382804 0.12376857 -0.2415923
0000e0 f4 ef 9f be ec 65 cd bd b4 8f ef 3d 81 dc 3b 3e
       -0.31237757 -0.10029206 0.11697331 0.18345834
0000f0 d9 3f ac 3d a7 1a a5 3e 6b 52 d3 bc 5d 58 67 be
       0.084106155 0.32246897 -0.025796136 -0.22592302
000100 f6 b8 12 3e 6c 19 20 bd 68 ae 99 3e 4e 84 60 3e
       0.1432837 -0.039086744 0.30015874 0.2192547
000110 46 32 69 be d8 75 f8 bc 3f 21 50 be b8 9c 4d bd
       -0.22773084 -0.03032963 -0.20325182 -0.050198287
000120 09 f3 80 be ba 63 c3 bb be d7 6b be d5 ae 85 3e
       -0.2518542 -0.005962816 -0.23031518 0.2610995
000130 e7 c5 4c 3e 2e a8 87 be b0 ef ae be 75 6a 44 bd
       0.19997369 -0.26495498 -0.34167242 -0.047953088
000140 ca c9 b4 bd b8 1f be 3d 4a 32 5b be 3e 8d 04 3e
       -0.08827551 0.092833936 -0.21405903 0.12944505
000150 35 d9 8b be aa e6 2a be 36 3b 2a be 3e b1 1c 3e
       -0.27314153 -0.16689554 -0.1662415 0.15301988
000160 a0 a5 07 bc 4b 99 9b be 42 f0 38 be ea da 15 be
       -0.008279234 -0.3039039 -0.18060401 -0.1463429
000170 3e 39 96 be e8 da 25 3d d8 c6 e6 3d 20 a7 6d bd
       -0.29340547 0.04049197 0.11268395 -0.05802071
000180 84 dc 00 be 00 5e fb ba df 99 80 be 3c 2c 45 be
       -0.1258412 -0.0019177794 -0.25117394 -0.19255155

fc3.bias f4 [10]
000000 d7 f4 26 bf 81 12 a8 be 2c 27 c7 bd 22 ee db be
       -0.65217346 -0.32826617 -0.09724268 -0.42955118
000010 14 9a 7b 3e 41 64 e0 bd 04 ee 08 3d ea 14 85 3e
       0.24570495 -0.10956622 0.033430114 0.2599252
000020 a7 a7 9d 3e 80 a3 d9 bb
       0.3079197 -0.006641805

fc4.weight f4 [10, 10]
000000 73 8b ab 3e ff e1 bf 3e 80 d8 20 3e 48 16 a7 3e
       0.3350483 0.3747711 0.15707588 0.32634187
000010 22 7f d1 be bc 7a 85 be 40 42 8f be 9c 06 fd 3d
       -0.40917307 -0.260702 -0.27980232 0.12354776
000020 13 0c 8c be 24 2f 77 be 83 f4 1c be 92 3a 95 be
       -0.27352962 -0.24139076 -0.15327649 -0.29146248
000030 00 64 df 39 b8 dd 3a 3d 7c 7f 3d be 3a 06 54 3e
       0.0004260838 0.045621604 -0.18505663 0.207055
000040 00 df f5 bd 9c 53 b6 bd 52 b5 76 3e c5 01 8b 3e
       -0.120054245 -0.08902666 0.24092606 0.27149788
000050 4a 4c c3 bd 26 ad 8e be f7 72 22 be 2b c8 e3 bc
       -0.09536035 -0.27866477 -0.15864168 -0.027805408
000060 04 4b 02 3e e8 89 af 3e d7 cd ac 3d 21 10 99 be
       0.12723929 0.34284902 0.08437698 -0.29895118
000070 9f b1 8d be 88 0c ce bd 00 fc 81 3b 67 73 11 be
       -0.27674577 -0.10060984 0.0039668083 -0.14204179
000080 a1 05 80 be 60 81 08 3d 72 83 80 be c6 aa 78 be
       -0.25004295 0.033326507 -0.25100285 -0.24283895
000090 7a 9f 83 be e2 7d af bd d1 01 8f 3e 40 2c fd 3d
       -0.25707608 -0.08568932 0.27931073 0.12361956
0000a0 ac c7 7f bd 33 17 1a 3d 6c f2 00 3e 04 0a 09 bd
       -0.06244628 0.03761978 0.12592477 -0.033456817
0000b0 fa 8f 82 be 04 82 47 be 73 fc 5b be 14 d0 90 bc
       -0.2550047 -0.19483191 -0.2148302 -0.017677344
0000c0 20 36 94 be d8 81 6b bd f0 d8 d6 3b 9a 47 d7 3e
       -0.28947544 -0.057496876 0.0065566227 0.42046815
0000d0 6d 9a 83 3e dc b8 a9 3e 1b be f8 bd 4b 23 87 bd
       0.25703755 0.3314885 -0.12145635 -0.065985285
0000e0 ea e3 2e 3c 0b 32 42 be fe 1b 0a be b0 19 82 bd
       0.010674456 -0.18964402 -0.1348724 -0.06352556
0000f0 80 75 94 3d c4 5c 2c be 36 ba 00 3e c3 56 df 3e
       0.07248974 -0.16832262 0.12571034 0.4362088
000100 d9 1a 96 be 79 35 f9 3d 90 7b 9e bd 5b 9d 97 3c
       -0.29317358 0.12168402 -0.077384114 0.01850765
000110 a0 00 97 3c a3 4e 8c 3e 6f 3f 87 3d 81 69 4d be
       0.018432915 0.27403745 0.06603896 -0.20059778
000120 80 f6 e8 bd 45 3d 3d 3e 8e 01 83 bc ab b0 2d 3d
       -0.11375141 0.18480404 -0.015991952 0.04240481
000130 5b 89 af bd 6e 76 fc bd f2 dc e5 bd 1e cf 2a be
       -0.0857112 -0.12327276 -0.112237826 -0.16680571
000140 5a 8b b2 3d 75 7c 1e 3e 22 f6 77 3e c5 b3 ef bc
       0.087179855 0.15477164 0.24214986 -0.029260525
000150 07 cc 76 bf 21 e1 ac 3e 2d bd 3e 3e fc 24 eb 3c
       -0.9640507 0.3376551 0.18626852 0.028704159
000160 14 01 c7 3d 30 77 86 3c dc 70 51 be ee a9 5b 3d
       0.097170025 0.016414255 -0.20453209 0.053628854
000170 2c 8f 8d bd 3d ce bf 3e ed 71 22 3e 2b a9 ca 3d
       -0.069120735 0.37462035 0.15863772 0.098955475
000180 c4 62 60 3e f7 74 1f be 09 ba 8c 3e a3 66 8b 3e
       0.21912676 -0.15571962 0.27485684 0.27226743

fc4.bias f4 [10]
000000 83 95 11 bf e6 ee 81 be 32 86 13 be f6 31 ad bd
       -0.5686876 -0.25377578 -0.1440666 -0.08456795
000010 79 d8 52 bb b3 22 5a bf 34 40 fd be 35 5c 3a bf
       -0.0032172485 -0.85209197 -0.49463046 -0.72796947
000020 57 f2 b8 3e 0d c8 44 bf
       0.3612239 -0.76867753

fc5.weight f4 [10, 10]
000000 92 dc 8f bd 5c 5e 96 be 71 ad 2b be 30 a7 ee 3c
       -0.07024492 -0.29368865 -0.16765381 0.029132456
000010 80 14 54 3e 51 06 92 3e 50 20 75 be c7 b3 07 3e
       0.20710945 0.28520444 -0.23938107 0.13252173
000020 4f 95 36 be 2b 54 7b be 72 89 1b 3e b5 c1 39 be
       -0.17830394 -0.24543826 0.1518915 -0.181403
000030 90 76 7b be 3c 4f 97 be 75 ec 55 be e4 d8 d2 3e
       -0.24556947 -0.2955264 -0.20890982 0.411811
000040 42 b6 94 3e 94 96 56 bd 17 f6 a9 3e 16 94 0a be
       0.29045302 -0.052389696 0.33195564 -0.13533053
000050 95 38 3f be 10 40 05 be 2e 7b 42 3e 4c f1 d3 3d
       -0.18673928 -0.13012719 0.18992302 0.10348758
000060 8e 94 f9 bd 0a ed 5e 3e 80 2a 49 be ae e7 83 be
       -0.12186538 0.2177011 -0.19645119 -0.25762695
000070 a8 58 8d 3d 99 8d 32 be 42 87 c5 3d bf 2c 89 3e
       0.069016755 -0.17436828 0.09644939 0.2679195
000080 8a 22 19 be aa f6 61 be 1c 08 f4 3d 08 98 91 be
       -0.14954582 -0.22066751 0.11915609 -0.28436303
000090 79 b9 90 3e b8 ec 18 be f0 bb 1c 3e c2 be 80 be
       0.28266504 -0.14934051 0.15306067 -0.25145537
0000a0 7c 2e 5b be 08 ae 0e 3d 24 2c e6 3d 1a 16 7b 3e
       -0.21404451 0.034833938 0.11238888 0.2452015
0000b0 f5 68 87 3e 60 fc 94 bc 78 87 26 bd 38 1c 56 3d
       0.26447263 -0.018186748 -0.040656537 0.052273005
0000c0 8c 70 96 bd 40 5e 30 3c d5 55 99 be 78 e9 84 be
       -0.07345685 0.010764658 -0.29948297 -0.25959373
0000d0 5a e6 5d 3e 8a 39 3d be 5a 00 7f 3e c8 25 0e 3d
       0.21669903 -0.1847898 0.24902478 0.034704
0000e0 04 c1 9d 3d b5 27 93 3e 9f 1a 34 be e8 77 4c bd
       0.077028304 0.28741232 -0.1758828 -0.04991904
0000f0 cf 1f 48 3e 4c 42 dd 3d bc 5f 8f be 6c 2e e6 3d
       0.19543384 0.10803661 -0.28002727 0.11239323
000100 b6 84 3f be 24 e6 37 3e 6c 01 a5 3e 06 84 46 3d
       -0.18702969 0.17958885 0.32227647 0.04846575
000110 7d 24 05 3f 03 12 c0 3d 2c 34 e2 3e ee 08 38 3e
       0.520088 0.093784355 0.4418043 0.17972156
000120 58 d6 ab 3d ce e0 42 be 4e 9c 2b be 01 dd d5 3e
       0.08390492 -0.19031069 -0.16758844 0.41770175
000130 61 ea b3 3e 34 33 8c 3e db 37 96 3e 62 0c bf 3e
       0.35139754 0.27382815 0.2933949 0.37314135
000140 f3 4c 24 be 1a 93 6e 3e 20 e9 8b 3e c8 f9 0d 3d
       -0.16044979 0.23298302 0.27326298 0.034662038
000150 5a 65 08 be 61 86 43 3e 8a 56 7e be 20 36 0b 3e
       -0.13319913 0.1909423 -0.248377 0.13594866
000160 a0 6f 6b be c3 2e 22 be 2e 5c b8 be b8 41 11 be
       -0.229918 -0.1583815 -0.36007828 -0.14185226
000170 d6 3d 52 3d 2e 06 68 be ec 04 8c be 48 e7 0f 3e
       0.051328503 -0.22658607 -0.27347505 0.1405307
000180 19 d6 b1 3d 7d f6 ac bd 9f b8 92 be 9d 05 2e be
       0.08683414 -0.084454514 -0.2865648 -0.16994329

fc5.bias f4 [10]
000000 28 b4 d4 bd 7b a3 af be 20 d5 d3 bd cf f3 b1 bd
       -0.103859246 -0.34304413 -0.10343385 -0.08689081
000010 74 8a 65 be 91 83 18 be a8 6f b5 be 25 c1 a1 be
       -0.22416097 -0.14893939 -0.3543675 -0.3159267
000020 c3 a5 10 3e 65 f8 4c be
       0.14125733 -0.2001663

fc6.weight f4 [10, 10]
000000 36 7b 9b 3e c5 ed 89 be 10 fc f9 bd 5c 9a e0 bd
       0.3036744 -0.26939216 -0.1220628 -0.10966942
000010 28 46 35 bd 5e 85 19 3e 6b 7f 46 be 20 b8 09 be
       -0.04425636 0.14992282 -0.19384544 -0.13449144
000020 9d 79 ad bd e2 7a 87 3e 68 6f 03 be 15 f6 e9 bd
       -0.084704615 0.2646094 -0.12835467 -0.114238895
000030 72 2b ef bd bf f7 97 be 0c 91 54 be cc 81 92 be
       -0.116782084 -0.29681203 -0.20758456 -0.28614652
000040 98 5e a0 3c 5a 07 46 3c 3e 18 aa bd f5 e9 56 be
       0.019576356 0.012086714 -0.08305405 -0.20987685
000050 dc f6 92 3e 1a d3 98 3c e6 50 1a 3e 47 8a 61 3e
       0.28703964 0.018655349 0.15069923 0.22025405
000060 0d dd 54 be 48 f0 21 bd 80 85 9c 3e c0 b1 00 3f
       -0.20787449 -0.03953579 0.30570602 0.50271225
000070 74 2a 3e 3d 32 fe 5d 3e 10 32 7e be f1 88 88 be
       0.046427205 0.21678999 -0.24823785 -0.26666978
000080 a5 24 85 3e d0 ff f3 bc 03 f4 9f 3e 70 60 bc 3c
       0.2600452 -0.029785067 0.31240854 0.022995204
000090 43 f1 4c be 59 ce 53 3e ed 16 9f 3e 49 1e 06 3d
       -0.20013909 0.20684184 0.31072178 0.032743726
0000a0 19 24 44 be 2e 25 fe 3d ab ba 1b be 96 11 6c 3e
       -0.19154395 0.12409435 -0.15207927 0.23053584
0000b0 80 01 70 3c 48 57 88 3d f7 f0 a5 3e 03 9c a0 3e
       0.014648795 0.066572726 0.32410404 0.31369027
0000c0 4d 6d d7 bd f2 ee 7c 3e 76 ef 46 3e cb 4e 54 be
       -0.10518894 0.24700525 0.19427285 -0.20733182
0000d0 d2 d6 74 3e 23 e5 b7 3d e0 f8 7e bd 0c 95 67 be
       0.23910072 0.08979251 -0.062249064 -0.2261545
0000e0 17 30 89 bd 70 9e ae be e1 f9 2e 3e 9a 86 6a 3e
       -0.066986255 -0.34105253 0.17087509 0.22902909
0000f0 94 7e ba bd a1 16 d0 3e 3e d0 ef bd c9 75 5e 3d
       -0.09106174 0.40642264 -0.11709641 0.054311547
000100 92 aa 61 be 40 0c 5b bc 2a ee 71 3e 65 cc 99 3e
       -0.22037724 -0.01336962 0.23626009 0.30038753
000110 e3 d2 8a 3d aa 87 2b be 67 53 62 3e 25 6d 90 3e
       0.06778505 -0.1675097 0.22102128 0.2820827
000120 88 dd 4f 3d 8d 27 15 be a8 50 89 3d 00 aa 5d 3a
       0.050748378 -0.14565869 0.06704837 0.0008455813
000130 3c 8b ba 3e c9 66 0a 3e a2 a7 bd 3d 37 94 52 3c
       0.36434352 0.13515772 0.09260489 0.01285272
000140 12 46 2c 3e 80 08 80 bb 71 c7 8a 3e 9c b4 28 3e
       0.16823605 -0.0039072633 0.27105287 0.16475147
000150 60 af 74 be 00 00 72 b6 dc 6d 89 be 30 a1 78 be
       -0.23895025 -3.606081e-06 -0.2684163 -0.24280238
000160 70 a9 7b 3d 1c 89 91 3d 6b fd e0 bc 30 2c d7 3e
       0.061440885 0.0710623 -0.02746459 0.420259
000170 5c f5 2d be 56 5f 07 be 80 6e 4f bd 00 4f fb 3a
       -0.16988128 -0.13219962 -0.05064249 0.0019173324
000180 34 85 bc 3d 5e 68 e5 3e 80 fd 20 bd 9e ab 39 be
       0.09205094 0.44806188 -0.039304256 -0.18131873

fc6.bias f4 [10]
000000 9a 13 89 3e 76 8c 23 3f da 83 cc be 84 04 0e 3f
       0.26772767 0.638862 -0.39944345 0.5547564
000010 10 fa e5 be 93 7a 6c 3e 90 77 af be 33 f8 8c be
       -0.44917345 0.23093633 -0.34270906 -0.2753311
000020 b8 75 2e bd 2d 4a 46 bf
       -0.042592734 -0.77456933

fc7.weight f4 [10, 10]
000000 40 ab ee 3d e3 0a 9e 3d 97 45 c6 3e e7 2f 7f bc
       0.11653757 0.0771692 0.38724968 -0.015575386
000010 5a ab cb 3e 80 ca 1c 3d 65 34 10 3e 9c 0e f2 3d
       0.39779168 0.038279057 0.14082487 0.11819193
000020 a8 d6 64 bd 73 03 f7 3e 40 0a 61 3c 46 57 46 3e
       -0.055868775 0.4824482 0.013735354 0.1936923
000030 32 a7 88 be 62 d6 26 be c0 a2 11 3d b3 48 81 3e
       -0.2669006 -0.16292718 0.0355556 0.25250778
000040 50 2a 1a 3e 40 b2 76 3d df f6 9f be c0 cd c2 3b
       0.15055203 0.060228586 -0.31243035 0.0059449375
000050 57 3c 9a 3d 54 56 a2 be 9d 45 59 3e ea 1d ae bd
       0.0753104 -0.31706488 0.21217962 -0.085017994
000060 67 53 de 3e f9 7b 2f be c2 f7 81 3e fd 18 9e 3e
       0.43423006 -0.17137136 0.25384337 0.3087844
000070 cc ae 7b be f4 56 b8 3e 9e e0 ad bd 3e ca 27 3e
       -0.24578398 0.3600384 -0.08490108 0.16385743
000080 2f b3 7f 3e 23 5f 36 be 72 5d 43 be f5 a4 80 3e
       0.24970697 -0.1780973 -0.19078615 0.25125852
000090 c7 b5 a9 bc 7d 27 ac bd 7e ab 75 3e 54 bf 55 be
       -0.020716561 -0.08405969 0.239912 -0.20873767
0000a0 cc 8a b7 bd f3 81 61 3e db da ea 3c b0 63 87 be
       -0.0896202 0.22022228 0.028668812 -0.26443243
0000b0 ce d2 c5 3b 1a 97 6d be 31 82 79 be a4 e3 18 3e
       0.006037093 -0.23202172 -0.2436607 0.14930588
0000c0 40 9a ac bd 62 3d 96 be 90 9f b7 3c 3c 43 9e 3d
       -0.08427858 -0.29343706 0.022414953 0.07727668
0000d0 4e 4a 49 be d8 5e 5a be b2 cd 9c be 8c 56 a7 3d
       -0.19657251 -0.21325243 -0.30625683 0.081708044
0000e0 b9 ef 50 be b0 6b c5 3c 48 d9 90 bd 2b bb 53 be
       -0.20403947 0.024099201 -0.07072693 -0.20676868
0000f0 ce a8 ce bd 42 ea 78 be 38 68 2b be 20 80 21 bc
       -0.10090791 -0.24308112 -0.16738975 -0.009857208
000100 0a 6b 8a be cf ff 8d be 06 8f 72 3e c0 c3 f3 3c
       -0.2703479 -0.2773423 0.23687372 0.029756427
000110 9c 35 0f be 80 43 2c bc ef 09 42 3e aa c6 8c be
       -0.13985294 -0.01051414 0.18949102 -0.2749532
000120 b4 40 60 be 49 2e 8b be 83 f7 82 bd a0 4b 32 bc
       -0.21899682 -0.2718375 -0.06394865 -0.010882288
000130 eb 4a 96 be da 03 34 3e 68 aa 78 be b9 4d 79 3e
       -0.29354033 0.17579594 -0.24283755 0.24346055
000140 60 5c c9 be 3a 04 45 bd 22 2f 0a be 3f e2 a2 be
       -0.3932829 -0.048099734 -0.13494542 -0.31813237
000150 0a 19 d5 3d 2e 40 5f be 42 04 56 be f9 3a d5 be
       0.104051664 -0.21801826 -0.20900062 -0.41646555
000160 fc c6 b3 3d 67 0d a4 3d f0 97 81 3e 0b b5 e0 3c
       0.08778188 0.08010369 0.25311232 0.027430078
000170 7b 86 61 be 56 c3 87 3e 94 61 a0 bc 5a 0f 5a 3e
       -0.22023956 0.26516217 -0.019577779 0.21294919
000180 83 10 62 be b1 ab 48 be de 67 86 be 39 92 76 3e
       -0.22076611 -0.19596745 -0.2625112 0.24079217

fc7.bias f4 [10]
000000 32 81 e9 be e5 8f 68 be 6c 99 ea be 79 0f 35 be
       -0.4560638 -0.22711141 -0.45820177 -0.17681684
000010 23 d3 c3 3b fc f6 d6 3d 7b b0 20 be 85 9c 5f 3c
       0.005976097 0.10496327 -0.15692322 0.013648157
000020 c6 0d c1 be ea 1e 33 3b
       -0.3770582 0.0027331659

fc8.weight f4 [10, 10]
000000 d6 f2 b6 be 28 67 4e 3d fb 27 86 3e d5 22 95 3e
       -0.35732144 0.050391346 0.26202378 0.29128137
000010 ac 3e ec 3d 36 46 6e 3e bb 6a 9d 3e 0c 85 b7 3d
       0.11535391 0.23268971 0.3074549 0.089609236
000020 74 ff d7 3d d8 6d 28 3d de 6a c8 3e 09 16 8b 3e
       0.10546771 0.04112038 0.39144033 0.2716525
000030 00 4f 36 bd 7a 46 18 bc 32 27 23 be 10 64 e8 3d
       -0.044508934 -0.009294147 -0.1593292 0.113472104
000040 5b e3 9c be 60 2d e5 3d e3 9a 38 3d b0 dd ea 3d
       -0.30642208 0.11190295 0.045069586 0.11468065
000050 d7 dd 95 3e 36 23 21 be 7f 70 a7 3e a0 58 0d 3e
       0.29270813 -0.15736088 0.32703015 0.13803339
000060 b0 27 97 be 6d 8b a1 3e 05 5d 8b 3e db 78 54 3e
       -0.29522467 0.31551686 0.27219406 0.20749228
000070 b5 a0 bd 3d 8e df 54 3e ad 30 2f be ce 10 dc bd
       0.09259168 0.20788404 -0.17108412 -0.10745393
000080 0e d4 18 3e 30 27 10 3e 12 3a 00 3e 19 6b 9a be
       0.14924642 0.14077449 0.12522152 -0.30159834
000090 97 2b 86 3e 13 41 07 be 4b 1e 8c 3e a1 67 85 3e
       0.2620513 -0.13208418 0.27366862 0.26055625
0000a0 d6 1c 06 3e d5 4e a1 3e c7 93 58 3e 79 bf 42 3e
       0.13096938 0.31505457 0.21150123 0.19018354
0000b0 3e 26 dd bd fb 2a 96 3e dc bd a9 3d a5 ac 2f 3e
       -0.1079831 0.29329666 0.08288166 0.17155702
0000c0 fc 52 62 3d 3c fd 2e 3e b8 28 01 3f 19 20 78 be
       0.05525492 0.17088789 0.50452757 -0.24230994
0000d0 07 d4 e6 3e 40 f3 47 be e0 21 8d be 01 4e 87 be
       0.4508364 -0.19526386 -0.27564907 -0.264267
0000e0 e8 23 bb 3d e8 f6 50 be c7 44 4f 3d a3 0e 73 bd
       0.09137708 -0.20406687 0.0506027 -0.05934013
0000f0 18 17 ad 3d a1 f4 9e be 83 73 14 be 00 9c 17 3b
       0.084516704 -0.31046012 -0.14497189 0.0023133755
000100 c0 a2 e8 3c 67 3e 12 be 20 06 e8 3d c5 a3 55 be
       0.028397918 -0.14281617 0.11329293 -0.20863254
000110 66 1e 89 be 50 24 38 bd 3d 12 2f be de 1c 4c 3e
       -0.26781005 -0.044956505 -0.17096801 0.19932887
000120 cc 55 5d be 50 7b d9 bc a8 7f 06 3e 29 ca 8d be
       -0.2161476 -0.026548058 0.13134634 -0.27693298
000130 62 ac 7a 3e 6f 22 13 be 5e 3b b0 bd 5e 15 46 be
       0.24479821 -0.14368604 -0.086050734 -0.19344088
000140 75 6f 2b be 9a b8 f9 bd 1f 06 b4 be 38 4d dd 3d
       -0.16741736 -0.12193413 -0.3516092 0.10805744
000150 be 06 32 bd 4d 62 9e 3e ca 78 5a 3e e2 ff 9b 3e
       -0.04346346 0.30934373 0.2133514 0.3046866
000160 24 8d be 3d 7f b5 5c 3e be c5 1a 3e f1 ee 84 3e
       0.09304264 0.2155361 0.15114495 0.25963548
000170 e9 af bd be 0b d9 99 bd 89 20 91 be 20 01 44 3c
       -0.3704827 -0.07512101 -0.28345135 0.011963159
000180 e2 bc e4 bd de b2 76 3e 72 41 43 bd 71 a8 2a bc
       -0.11168839 0.2409167 -0.047669835 -0.010416136

fc8.bias f4 [10]
000000 fa ba 75 be 96 7b 31 bf 2b 87 e0 be 24 e6 20 be
       -0.23997107 -0.693292 -0.43853125 -0.15712792
000010 a7 4d 35 bf 2d db 61 be dd cf 28 be f3 21 10 be
       -0.70821613 -0.22056265 -0.16485544 -0.1407545
000020 60 f6 34 3e 6b 6c 91 3d
       0.1767211 0.07100757

fc9.weight f4 [10, 10]
000000 c9 6b 37 be cf 14 74 3e 40 b5 8f 3e ae ce 8f be
       -0.1791221 0.23836063 0.2806797 -0.28087372
000010 fd 66 5c 3e 4a 90 7a 3e c0 c9 49 bc f7 3c 9b 3e
       0.21523662 0.24469104 -0.012316167 0.3031995
000020 0c 19 39 be a4 2a 8e 3e 28 91 2b be 5b f8 d2 be
       -0.18075961 0.27766907 -0.16754591 -0.41205105
000030 e3 70 fc 3d a3 57 1b be 9d d0 06 be 81 af 29 3c
       0.12326219 -0.1517015 -0.13165517 0.010356785
000040 75 23 87 be 8d 97 8a be bb d8 87 3d cc 1e 71 3e
       -0.2639424 -0.2706875 0.06633135 0.23546904
000050 61 b2 06 bd 47 dd be 3e 46 0b ad 3e 9c c5 b8 3d
       -0.03288496 0.37278196 0.33797663 0.09022066
000060 73 ec 62 bc 11 f8 00 3f 4a 52 14 3e 70 47 48 3d
       -0.013850319 0.5037852 0.14484516 0.048896253
000070 e4 6a 34 3e ac 2f 02 be 4b b7 8b 3d 48 41 6f be
       0.176189 -0.12713498 0.0682207 -0.23364747
000080 d8 30 f6 bd bc 2f d4 3d d3 ac 5f 3d cd 74 89 bc
       -0.12021035 0.10360667 0.054608177 -0.016779328
000090 8a 9e 7a be c6 a7 4a be 00 ee b4 3b 46 8f e4 bc
       -0.2447454 -0.19790563 0.005521536 -0.02790035
0000a0 9a 9c 87 be 5f e7 88 3e a2 d6 5d 3a a1 16 66 be
       -0.26486665 0.26739022 0.0008462464 -0.2246957
0000b0 49 97 c1 3d 6e 46 c7 3d 86 da 1e be 54 60 22 3e
       0.094526835 0.0973023 -0.15513048 0.15857059
0000c0 be e0 48 be 64 83 10 3e 4a e7 99 3e 35 9b ae 3e
       -0.19616982 0.14112622 0.30059272 0.3410279
0000d0 b8 96 91 3e 18 c3 83 bd 44 70 40 3e b7 84 7f 3e
       0.28435302 -0.064336956 0.18792826 0.2495297
0000e0 c4 2e 9e 3d a4 34 83 bd f0 1c 97 3d ca 55 bf bd
       0.077237636 -0.06406525 0.07378566 -0.09342535
0000f0 e7 e3 36 be 6f bd 33 be d8 8e 2d be d8 43 4b be
       -0.17860375 -0.17552732 -0.16949022 -0.19850099
000100 15 5b de 3e 1e 39 38 3e 42 77 92 be 7b 86 25 be
       0.43428865 0.17990538 -0.28606611 -0.16164581
000110 c1 7c a8 3d 6c c9 ad bc ba 82 b6 bd 04 25 80 bb
       0.0822692 -0.02121421 -0.08911653 -0.0039106626
000120 2d 93 83 bc b8 fd 14 3d c3 b2 0e 3e 25 30 a1 3e
       -0.01606139 0.036374778 0.1393538 0.31482044
000130 86 39 4f 3e d9 3f 85 3e 6f c9 6b 3c 8f ed b2 bd
       0.20236787 0.26025274 0.014391287 -0.08736717
000140 00 70 8d 3a 3e 96 58 be 3e 63 a3 3d 58 46 1c bd
       0.0010790825 -0.21151063 0.07977913 -0.038153023
000150 be 2e c9 bd 52 79 83 be 88 0d 1c 3e 30 bf 34 3e
       -0.098233685 -0.25678498 0.15239537 0.17651057
000160 58 08 a6 3e ce e3 b2 bd 9c 23 c3 3d 60 4c 43 3c
       0.3242824 -0.087348565 0.09528276 0.011920065
000170 0d 43 4e be 17 6f 4a be 6a d2 25 3e cf f9 39 be
       -0.20142765 -0.1976894 0.16193548 -0.181617
000180 62 cc 6b 3e d8 41 e2 3d 34 2c dd 3d 12 42 55 3e
       0.23027185 0.11047715 0.10799447 0.20825985

fc9.bias f4 [10]
000000 80 48 5c be cd da 8c 3e 5a 89 77 be fd 25 61 be
       -0.21512032 0.27510682 -0.24173489 -0.21987148
000010 93 fd 12 bf a3 79 e5 be bf 33 88 be b7 00 65 be
       -0.57418174 -0.44819364 -0.2660198 -0.22363554
000020 e5 7c 89 3e a6 49 cc bd
       0.268531 -0.09974985

fc10.weight f4 [10, 10]
000000 da 12 86 3c 17 0f 31 be d6 9b 83 3e b8 77 c4 bd
       0.016366411 -0.17290913 0.2570483 -0.09593147
000010 71 b1 26 bb 3e a7 b6 3e 21 92 76 3d 36 17 d3 bd
       -0.0025435353 0.3567447 0.060197953 -0.103071615
000020 eb a2 79 be 42 ae 5e be 0e fe ef 3e 5a 34 a3 bd
       -0.24378555 -0.21746162 0.46873516 -0.0796897
000030 de d8 01 3f e0 10 c4 3e 12 d0 36 3e ab e5 c5 3d
       0.5072154 0.38294125 0.1785281 0.09662946
000040 e1 fd 92 3e a2 cf a8 3e 80 06 a0 3e b1 ca 82 3e
       0.2870932 0.3297091 0.3125496 0.25545266
000050 86 e9 85 be 3f 56 12 3e 2b ce d0 3d 00 51 80 be
       -0.26154727 0.14290713 0.101955734 -0.25061798
000060 57 5f cf 3d fa 70 5e be 63 34 5d be f1 5b 3a bd
       0.101256065 -0.21722785 -0.21602015 -0.04549784
000070 18 2a 1f bd 10 23 ae bd 1f d1 78 be e5 a3 2e 3e
       -0.038858503 -0.085027814 -0.24298523 0.17054708
000080 5b d1 6e 3e 21 9e b1 bd 8e d1 aa be ec 4a ce bd
       0.2332205 -0.08672739 -0.33363003 -0.10072884
000090 75 5a ab be 1e b0 9f be af 76 43 be ba 74 4b 3e
       -0.3346745 -0.31189054 -0.19088243 0.19868746
0000a0 b9 14 78 be 10 b4 4e bd 0d 26 28 be 6e 15 95 be
       -0.24226655 -0.05046469 -0.16420765 -0.29117912
0000b0 1c ca 91 bd c0 e6 96 bc a8 c9 59 bd 16 c1 6c 3e
       -0.071186274 -0.018420577 -0.05317083 0.23120531
0000c0 80 b5 01 3e 62 9b 49 3e 2a cd 8b 3e a8 fc 2d 3e
       0.12666893 0.1968818 0.27304965 0.16990912
0000d0 b6 c3 aa 3e fc 38 96 bd 69 9e a8 3e 56 1f a4 3e
       0.3335244 -0.07335088 0.32933357 0.32055157
0000e0 0b 17 ce bd 8b 38 dc 3d e6 09 83 be 85 ad 8d be
       -0.10062989 0.10752972 -0.2559349 -0.27671447
0000f0 e1 8a 36 bd 84 37 a2 3b 32 e1 ff bd 34 16 c8 3d
       -0.04456604 0.0049504656 -0.124941245 0.0976986
000100 d4 fc 79 be 23 ff 31 be 89 35 27 3e 27 25 bb be
       -0.24412853 -0.17382483 0.16329016 -0.36551782
000110 31 c5 07 bc 4a 4c 79 3e fe c2 72 3e 88 eb dc 3d
       -0.00828676 0.24345508 0.23707196 0.107871115
000120 90 7b 93 be c0 bf 26 3d fe be e3 bd 6c 0e b6 bd
       -0.28805208 0.04071021 -0.11120413 -0.088894695
000130 36 1b 78 3e fc 17 dc bd 90 e8 67 be 60 f8 81 be
       0.2422913 -0.10746762 -0.2264731 -0.25384808
000140 24 87 b9 3e 47 bc 1f 3e 6a 92 d4 3e 39 c4 48 3e
       0.36235917 0.15599166 0.41517955 0.19606103
000150 20 61 17 be e0 56 5d 3e c8 8b 61 3e c3 8c 83 3e
       -0.14783144 0.21615171 0.22025979 0.2569333
000160 4e 61 08 3d 02 49 73 be 08 2c 42 be 18 7a 59 3e
       0.033295922 -0.23758319 -0.18962109 0.21237981
000170 05 91 58 be 40 bf 93 3d 30 f4 25 bd 80 02 d9 3d
       -0.2114907 0.072142124 -0.04051608 0.1059618
000180 10 81 a9 3c 59 a4 76 be 59 e2 01 be 1b 37 8d 3e
       0.020691425 -0.24086131 -0.12684001 0.27581105

fc10.bias f4 [10]
000000 04 12 d6 be 2c a0 32 be 80 07 59 be 58 eb 10 3f
       -0.4181062 -0.17443913 -0.21194267 0.56609106
000010 9a a2 8a bd e9 d4 f3 be 01 43 29 bc 5a 0e e8 bd
       -0.06769295 -0.47623375 -0.010330916 -0.11330862
000020 5c 83 10 bf 52 4e 59 bd
       -0.5645044 -0.053053208

fc11.weight f4 [10, 10]
000000 10 e5 93 bc 19 2c 38 be c8 5e dd 3d 42 eb 9c be
       -0.018053561 -0.17985572 0.10809094 -0.30648237
000010 8e c7 46 3e 13 2a 96 3e 68 8d 51 3d 3e 53 97 bd
       0.19412062 0.29328975 0.051160246 -0.07388924
000020 d0 4a 94 be bc 10 18 3e d1 cb 81 3e 36 c1 51 3e
       -0.28963327 0.14850134 0.25350812 0.2048386
000030 f2 c7 e5 3c 3a e1 5a 3e 73 24 9b 3e 66 9d 1d 3c
       0.028049443 0.2137498 0.30301246 0.009620046
000040 41 54 1c be 7b b8 99 be f3 e8 ba 3d 20 48 fc 3d
       -0.15266515 -0.3002356 0.09126463 0.12318444
000050 a6 dc bc 3e 35 04 a9 bd 44 16 0b 3e fd 7a 8a 3d
       0.3688709 -0.082527556 0.13582712 0.067617394
000060 ba f5 a0 bd 7f bd 93 3e 06 6b 94 be 9e b2 6e 3e
       -0.078593686 0.28855512 -0.28987902 0.23310325
000070 d2 70 76 3e 6a 73 40 be b1 a1 21 3e 0f 49 ea bd
       0.24066475 -0.18794027 0.15784337 -0.11439716
000080 10 24 e9 3c ad 29 da bd e1 86 9e be 4b a3 61 3c
       0.028459579 -0.1065248 -0.3096228 0.013771842
000090 fd e7 47 3e 50 b3 16 bd 06 8b 10 be 60 2a 24 3c
       0.1952209 -0.0367921 -0.14115533 0.010019869
0000a0 41 e7 26 3e 99 13 d6 3c f9 73 77 be 24 ac 49 3c
       0.16299154 0.026132392 -0.24165334 0.012309108
0000b0 f0 2b 53 bd 47 ff 82 3e 25 fb 8f 3e 40 4f c0 3b
       -0.051555574 0.25585386 0.28121296 0.0058688223
0000c0 b5 e4 78 3e aa 50 3a 3e 88 3e c1 bd 6a ca 9c bd
       0.24305995 0.18194833 -0.09435755 -0.07655795
0000d0 36 ca 56 3e 46 b8 67 3e 74 76 99 3d 58 16 66 be
       0.20975575 0.22628888 0.07493296 -0.22469461
0000e0 d6 95 05 3e 11 d1 85 be a3 57 27 3e 73 00 17 3d
       0.13045439 -0.26136068 0.16342025 0.036865663
0000f0 0c 32 d1 3d f1 d1 9d be 38 b1 e3 bd 2a 86 09 3e
       0.10214624 -0.30824235 -0.11117786 0.13430086
000100 d6 3c 79 3e 60 69 b9 bd c9 61 90 3e 7e 86 90 bd
       0.24339613 -0.09053302 0.28199604 -0.07056902
000110 28 4f 43 be 19 3a 0c be 90 33 a1 3c 60 36 66 bd
       -0.19073164 -0.13694037 0.019677907 -0.0562042
000120 92 ba 1c 3e 21 35 33 be a2 3b b8 bd 1c 74 a0 be
       0.15305546 -0.17500736 -0.08995749 -0.31338584
000130 25 28 84 3e b8 b8 73 bd e0 44 7f be 20 02 7a bc
       0.25811878 -0.059502333 -0.24928617 -0.015259296
000140 20 b3 79 3d 5e 83 df 3d f8 74 10 bd 3b eb b3 3e
       0.060961843 0.10913728 -0.0352678 0.35140404
000150 04 73 df bd 89 fe 50 bd 2a cb 99 bd 90 3e 67 3d
       -0.10910609 -0.051023994 -0.075094536 0.05645615
000160 4e 17 94 3e 40 66 6e bc 61 c3 af 3e 39 4a 03 3f
       0.2892403 -0.0145507455 0.3432875 0.5128513
000170 d7 ae 24 be e1 c9 9f 3e 60 dc 18 be 85 db a2 3e
       -0.16082321 0.3120871 -0.14927816 0.31808105
000180 78 aa 7b bd 94 8f c5 3d 73 e6 8b 3e 27 93 54 be
       -0.06144187 0.09646526 0.27324256 -0.20759259

fc11.bias f4 [10]
000000 4f b3 59 be be c7 46 bf ec 6b 0d bf 25 2c 00 3d
       -0.21259807 -0.7764853 -0.552428 0.0312921
000010 bb 90 b7 be dc 26 c2 3e 5b 5e 8e be 80 66 17 bc
       -0.35852608 0.37920272 -0.27806363 -0.0092407465
000020 96 63 26 bf 6c 10 73 be
       -0.64995706 -0.23736733

fc12.weight f4 [10, 10]
000000 fc f4 eb 3d fb 96 c2 be 76 8c 37 3e 40 26 c9 bd
       0.115213364 -0.38005814 0.17924675 -0.09821749
000010 b2 82 37 3e 90 69 59 bd d2 b4 37 3e f5 2f 93 3e
       0.1792095 -0.053079188 0.17940071 0.28747526
000020 96 d1 51 be 98 96 59 be 08 da 29 3e c4 cd d9 bd
       -0.20490107 -0.21248853 0.16587079 -0.1063495
000030 44 fc a9 3e 50 fc 28 be 73 21 c9 3e 85 3e 73 be
       0.33200276 -0.165025 0.39283332 -0.23754318
000040 26 41 05 be b2 a0 71 3e be 6e 04 3c fa 71 d4 3e
       -0.13013133 0.23596457 0.008083044 0.41493207
000050 e6 ca 5e 3e 81 fc 93 3e 63 ef 9c be fb e5 d4 bd
       0.21757087 0.28903583 -0.30651388 -0.10395428
000060 08 04 d5 bd d9 01 29 bd a2 7f 74 be 54 c8 04 3e
       -0.104011595 -0.041261528 -0.23876813 0.12967044
000070 80 72 75 bc 6e 06 8a be 51 a7 91 be e4 60 29 3e
       -0.014980912 -0.2695803 -0.28447965 0.16540867
000080 de 61 ea bd e2 ef 6e 3e 98 93 66 3d c4 f8 c4 3d
       -0.11444448 0.23333696 0.0562931 0.09617761
000090 38 72 44 bd 00 6d 33 bd f6 01 dc bd 62 32 8c be
       -0.04796049 -0.043805122 -0.107425615 -0.2738219
0000a0 2a 95 4b 3e c5 eb 4b be 9e bb 3c 3e 24 75 8e be
       0.1988112 -0.19914158 0.18430945 -0.27823746
0000b0 8a dc 4a 3e 0c bf a0 3c 71 0c 46 be 2d b1 85 3e
       0.19810691 0.019622348 -0.19340684 0.26111737
0000c0 00 8d fc 3b 99 83 e3 be 9c 2f 04 3e 9d e8 a1 3e
       0.007707238 -0.4443634 0.12908787 0.31622782
0000d0 43 48 c3 3e 91 32 87 be 7d d5 b2 3e 50 73 a0 3e
       0.3814107 -0.26405767 0.34928504 0.31337976
0000e0 8b 47 9f 3e 7e 7b 30 3e f3 91 21 bd 79 17 ea 3e
       0.3110927 0.17234609 -0.03944583 0.45721033
0000f0 95 f8 93 3e ca a2 f7 bd a0 b9 53 bd be 65 7d 3e
       0.2890059 -0.120915964 -0.051690698 0.24745843
000100 67 55 82 3e ca e8 55 3e 3a 16 78 3e be 68 26 be
       0.25455782 0.20889583 0.24227229 -0.16250893
000110 10 74 5f bd 2b 5e 01 be d6 4c 28 3e 04 66 a1 3d
       -0.054554045 -0.12633578 0.1643556 0.07880786
000120 34 22 7a be 70 b3 22 bd 7a 07 84 be fb 5f 98 be
       -0.2442711 -0.039721906 -0.25786954 -0.29760727
000130 b5 99 93 3e 0a e3 22 be 7e 87 10 3e dc 36 90 bd
       0.28828207 -0.15906921 0.14114186 -0.070417136
000140 40 25 83 bd 00 28 56 b9 d2 8d 7c 3e b0 2e 33 bd
       -0.06403589 -0.00020423532 0.24663475 -0.043745697
000150 4d f9 85 3e ca 24 27 3e 36 24 5e 3e 6a d7 92 be
       0.26166764 0.16322628 0.21693501 -0.28679973
000160 59 6a 17 be 76 3f 85 be da 8c 89 bd e7 44 23 3e
       -0.14786662 -0.2602498 -0.067163184 0.15944253
000170 b9 23 79 3e 13 d0 3e 3e 2f a2 94 3e c7 f5 86 be
       0.24330033 0.18634062 0.29029986 -0.26359388
000180 70 14 4b be 22 84 74 3e 59 2e 5d 3e ac ab 98 3e
       -0.19832015 0.2387853 0.21599711 0.29818475

fc12.bias f4 [10]
000000 f4 57 3a be 92 a2 c3 be 96 a1 21 bd 40 7f 54 be
       -0.18197614 -0.3820997 -0.03946074 -0.20751667
000010 47 29 a7 bc 3f 3e 96 bd 59 d7 3c be 90 ca 04 be
       -0.020405425 -0.07336091 -0.18441524 -0.12967896
000020 17 45 ea bd 35 6a 89 be
       -0.11438959 -0.26838842

fc13.weight f4 [10, 10]
000000 b4 90 ed bd 43 27 4b 3e ae f3 9b be 76 05 37 be
       -0.115998656 0.19839196 -0.3045935 -0.17873177
000010 d4 8c 44 be 99 60 a1 bc c8 ce 37 3d 22 8c b8 bd
       -0.19194347 -0.019699382 0.044874936 -0.09011103
000020 a5 2e 8a 3e c5 57 c2 be 44 42 e4 3d 53 2e 32 be
       0.26988712 -0.37957588 0.11145452 -0.17400484
000030 6c a5 1e be 06 eb 9b be 04 1f a6 be 22 0a c5 be
       -0.15492791 -0.30452746 -0.32445538 -0.38484293
000040 e4 45 0d 3e e2 30 f3 bd 98 63 29 3e 6b 69 7a be
       0.13796192 -0.11874558 0.16541898 -0.24454276
000050 fc 75 a0 bd 46 08 24 3d 48 1d 26 3e da 8b ae bd
       -0.07835004 0.040046953 0.16222107 -0.08522768
000060 29 09 8c 3d a0 d3 21 bd 4e f2 44 3e da 8e 4c 3e
       0.06837685 -0.039508462 0.19233057 0.19976369
000070 02 69 03 3e 90 71 5f be f0 c4 b5 bd fc 1f fc 3d
       0.12833026 -0.21820664 -0.088754535 0.12310788
000080 82 7e 30 3e 10 44 8a bc 56 52 22 3e 8c d0 42 be
       0.17235759 -0.016878158 0.15851721 -0.19024867
000090 b0 85 36 3e e0 f2 1e bd 87 d7 5e be 6f 56 1d be
       0.17824435 -0.038805842 -0.21761905 -0.15365003
0000a0 c4 37 77 be a1 bb 57 3e fa 43 a8 bd 78 75 b9 bd
       -0.24142367 0.21067668 -0.082160905 -0.090556085
0000b0 ff cd d3 3d d2 f2 09 3e c0 09 05 3c d0 62 24 bd
       0.10342025 0.13471535 0.00812 -0.040133297
0000c0 ab dc c9 3d ca 3f 07 3f 33 67 43 be ba 81 b8 3e
       0.09856542 0.5283171 -0.19082336 0.36036474
0000d0 51 97 aa 3d 4f 14 39 be ae dc 8b bd 40 e0 97 3e
       0.083296426 -0.18074153 -0.06829201 0.29663277
0000e0 a0 d8 86 3d a0 59 27 bc 02 36 21 be 1d 49 a1 3e
       0.06584287 -0.010214239 -0.15743259 0.31501094
0000f0 20 2e 40 3d 7a 65 9d be 98 e8 64 bd 18 b6 af bd
       0.04691899 -0.30741483 -0.05588588 -0.085796535
000100 08 2d 0a be e6 9e 33 be b2 59 83 be e5 76 9f 3e
       -0.1349374 -0.17541084 -0.2565437 0.31145397
000110 c3 e3 93 be af 81 96 3e d1 8d 7e be f2 5b 4e be
       -0.28884706 0.29395816 -0.24858786 -0.20152262
000120 b7 63 49 be ba 52 2d be 8b ee 88 3d 07 4f 87 3d
       -0.19666944 -0.16926089 0.066861235 0.0660687
000130 52 b7 54 be 58 d1 16 be fa 48 25 3e 09 62 ad bd
       -0.20773056 -0.14728296 0.1614112 -0.08465964
000140 10 bb 9d 3d 6e 7d 3d 3e 2e d0 5b be cb b5 33 be
       0.07701695 0.18504879 -0.21466133 -0.17549817
000150 13 3b c7 bc 8f a1 9b be d4 8b 57 be a6 56 23 be
       -0.024320161 -0.30396697 -0.21049434 -0.15951023
000160 4f 90 16 be 58 90 06 3e 48 1c 79 3d d5 5b 4f 3e
       -0.14703487 0.13141 0.060817987 0.20249875
000170 9c 71 0a 3d d6 4c 5a be 3f 7d 03 3e bb aa 27 be
       0.033799753 -0.21318373 0.12840746 -0.16373722
000180 4e b1 a7 bd d3 f2 83 3e b8 f4 24 be 09 9c 17 bd
       -0.08188115 0.25771198 -0.16108978 -0.03701404

fc13.bias f4 [10]
000000 16 54 bd be 9e 57 c4 3c 78 25 f7 b9 08 23 85 be
       -0.36978215 0.02396756 -0.00047139428 -0.2600329
000010 18 b7 28 bc 6e 88 75 be 36 35 27 be 71 0f 01 be
       -0.010297559 -0.23977825 -0.16328892 -0.12603547
000020 ea f4 3c bd 85 69 f1 bb
       -0.046132006 -0.0073673152

fc14.weight f4 [10, 10]
000000 52 e1 dc bd d2 28 7f be ea 37 6e be 88 51 f3 3d
       -0.10785164 -0.24917915 -0.23263517 0.11880785
000010 2b de ee 3d 54 9a 0f be 3f 54 93 3e f8 49 8a 3e
       0.11663469 -0.14023715 0.28775212 0.2700956
000020 f6 2c 2f be 81 62 0c 3e fd 43 09 be e4 3e cb 3d
       -0.17106995 0.13709451 -0.13404842 0.09924105
000030 09 c3 86 3e 9e 36 8f be 14 01 21 be f0 67 92 bc
       0.26320675 -0.27971357 -0.15723068 -0.017871827
000040 60 28 41 3d 40 26 85 be 36 0a 55 be 40 1e f8 bc
       0.047157645 -0.26005745 -0.20804676 -0.030287862
000050 c8 bf 3a bd 88 5f 6c 3c 2e 8b 9a bc 68 db 84 3d
       -0.045593053 0.014427073 -0.018865194 0.06487161
000060 d8 13 18 bd 6b 3f 5b bc d0 85 95 bc 9f f0 5d 3d
       -0.0371283 -0.013381819 -0.018252283 0.054184552
000070 53 39 21 3e 64 b9 5d be 1c 94 2b be d3 d4 63 3e
       0.15744524 -0.21652752 -0.16755718 0.22249155
000080 e9 3d ae bd 6a 6f 52 3e d0 5a a3 3e 2b 91 8f 3e
       -0.08507902 0.20550314 0.31905222 0.28040442
000090 10 95 0c be ef 7c a8 3d 9c 33 c5 bd 90 93 cb bd
       -0.13728738 0.08226954 -0.09628984 -0.09940255
0000a0 27 99 9a 3e 35 3f 4c be f2 53 32 be 64 92 fb bd
       0.3019497 -0.19945987 -0.17414835 -0.12283781
0000b0 38 01 c2 bc 6d 14 7d bc 4b 92 1f be 2c 87 d5 3d
       -0.023682222 -0.015446764 -0.1558315 0.104261726
0000c0 f3 d5 0b 3c 09 97 9c 3e 40 cb 44 3e 82 17 05 3e
       0.008534896 0.3058398 0.19218159 0.12997249
0000d0 00 7e ff ba 66 d7 72 3e 37 1e b0 be 88 99 30 3d
       -0.0019492507 0.2371498 -0.34398052 0.04311517
0000e0 a7 38 3c be ec e7 22 3e 10 20 8f be 5c a1 f0 3d
       -0.18380986 0.15908784 -0.2795415 0.11749527
0000f0 5c 1e 85 be ce fe 3c 3e e8 d6 6c 3d 83 ec 8a 3e
       -0.25999725 0.18456575 0.057822138 0.2713357
000100 86 c7 a3 be 28 29 fa 3d 90 1a 58 be 05 f4 80 be
       -0.31988162 0.12214881 -0.21103883 -0.25186172
000110 08 55 f6 3d 20 06 5a bd 66 49 27 be 29 c5 89 be
       0.12027937 -0.053228498 -0.16336593 -0.26908234
000120 64 24 a8 bd d4 50 b3 3d 80 95 fb 3e f8 32 f5 3e
       -0.08210066 0.08755651 0.49137497 0.4789045
000130 40 d2 a9 3b a6 a1 0b bd ac 59 90 be 3f a6 90 3e
       0.0051825345 -0.034089707 -0.28193414 0.28251836
000140 e7 8a 34 be 58 cd 63 bd 80 a5 82 be 76 d3 5f be
       -0.17631112 -0.055615753 -0.2551689 -0.2185801
000150 f8 53 7b 3d dc 1b a0 bd 88 53 14 3d 80 7e 1e bb
       0.061359376 -0.07817814 0.036212474 -0.0024184287
000160 f0 fb 83 3c 44 53 80 bd 40 5a 48 bc ff 59 92 3d
       0.016111344 -0.06265882 -0.0122285485 0.07146072
000170 f1 f2 24 3e 95 d9 88 3e 85 27 8d be 99 1c 3a be
       0.161083 0.26728502 -0.27569214 -0.18174972
000180 48 95 41 bd 54 00 2a be e5 4f e4 3d eb 7a 8a 3e
       -0.047261506 -0.16601688 0.11148051 0.27046904

fc14.bias f4 [10]
000000 f2 e9 9b 3e 7a fe 65 be 24 d7 c3 bd 16 cb 7f 3d
       0.30451924 -0.22460356 -0.09562519 0.062449537
000010 bf ae 88 3e 3e 94 9d be 72 c0 80 bd 2a 35 f6 be
       0.2669582 -0.30777162 -0.06286706 -0.48087436
000020 32 7c 02 be c0 38 98 3e
       -0.12742689 0.29730797

fc15.weight f4 [10, 10]
000000 c0 7a 8c be de b5 45 3e 90 10 84 be a7 0b 06 3e
       -0.274374 0.19307658 -0.25793886 0.13090383
000010 00 0e a6 bb 6d e2 09 3e 4c dd b0 3d 0c d5 c8 bd
       -0.005067587 0.13465281 0.08635959 -0.098062605
000020 ab 79 1f be 17 ae 32 be e8 31 a9 be 01 cf 85 3e
       -0.15573756 -0.17449223 -0.33045888 0.26134494
000030 60 83 28 be 0e e0 f8 bd 9a 70 da be 38 d1 ad 3d
       -0.16456366 -0.1215211 -0.42664033 0.08487171
000040 0e c5 dc bd c6 7f 81 be 68 4e 20 3d d3 16 d0 be
       -0.10779773 -0.25292796 0.039137274 -0.40642413
000050 a8 16 50 3d b4 38 84 be 07 bb 83 3e f5 54 6e be
       0.050802857 -0.2582451 0.25728628 -0.23274596
000060 ad e2 00 3e 38 56 20 3e 4d 64 a8 be cf cf f8 3d
       0.1258647 0.1565789 -0.32889023 0.12149011
000070 4f dc 83 3e 1c 54 0b 3e 26 5e 23 bd 08 64 c4 3d
       0.2575402 0.13606304 -0.03988471 0.09589392
000080 f1 17 86 3e d7 f6 38 3e ea cc a9 be 9e d9 9e be
       0.2619014 0.18062912 -0.3316415 -0.31025404
000090 9d 29 8f be 00 fa 53 be d0 ba 82 bd 8a 5f e8 bd
       -0.27961436 -0.20700836 -0.06383288 -0.11346348
0000a0 da 5e 55 3e 78 2a 5f be 39 39 81 be 20 22 7d be
       0.20836964 -0.21793544 -0.2523897 -0.24720049
0000b0 ac 22 3f be 71 95 9e 3e 80 91 23 3d c8 c8 62 bd
       -0.1866557 0.3097339 0.03993368 -0.05536726
0000c0 b8 53 be bd f8 04 78 be 86 a0 48 bd 46 98 2a 3e
       -0.09293312 -0.24220645 -0.048981212 0.1665965
0000d0 3e da 5a 3e 1e 7d ae 3e 3e bc e1 3c 79 8b ce bd
       0.21372315 0.34079832 0.027555581 -0.10085196
0000e0 8b 93 dc bd f9 60 04 3f 81 23 92 be b9 d8 a4 3e
       -0.10770329 0.5171047 -0.28542712 0.32196596
0000f0 f0 96 f4 bc c1 53 96 3e ce ad 3d 3e 08 9e a3 bd
       -0.029857129 0.29360774 0.18523332 -0.079891264
000100 61 58 86 be 88 25 2a 3d a2 7d 62 be a0 9b 08 bd
       -0.26239303 0.0415397 -0.22118238 -0.03335154
000110 ac 27 a2 3d 08 21 1e 3e ec 7a 47 be 66 96 5a be
       0.07917723 0.15442288 -0.19480485 -0.21346435
000120 c2 ee a7 be 1d 3a dc be a9 4a bb bd 7f 16 45 be
       -0.32799345 -0.43013087 -0.091451 -0.19246863
000130 00 e6 3b 3c df 68 19 be f4 22 5b be 58 a1 d2 3d
       0.0114684105 -0.14981411 -0.21400052 0.1028468
000140 44 b3 a6 3d 76 5d 63 3e 25 c5 7a 3e b0 33 aa be
       0.08139661 0.22203621 0.24489267 -0.3324256
000150 26 33 8b be b7 c8 73 be 92 6f 59 3e 9a cb 3e 3e
       -0.2718746 -0.23807035 0.21233967 0.18632355
000160 dd 3f 83 3e fe 94 a3 be 28 19 1b be 4d d7 9d 3e
       0.2563466 -0.3194961 -0.15146315 0.30828324
000170 f3 14 45 be 50 93 1f be a7 a2 ce 3d 74 88 8d be
       -0.19246273 -0.15583539 0.10089617 -0.27643168
000180 33 ed 90 bc d6 43 2f 3e 1f a4 84 3e 59 28 7d 3e
       -0.01769123 0.17115721 0.25906464 0.24722423

fc15.bias f4 [10]
000000 11 0b df be 21 16 60 3d 4a c7 1c 3f 29 35 9a be
       -0.4356313 0.054708604 0.6124159 -0.30118683
000010 60 e5 64 bc 9c de d0 be ea 58 25 be 29 d5 69 bc
       -0.013970703 -0.40794837 -0.161472 -0.014272013
000020 64 53 3c 3d 6b 18 8b 3e
       0.045977965 0.27167067

fc16.weight f4 [10, 10]
000000 6c 02 d5 be 0d 64 b4 3c 41 df 9d 3e 35 a2 ba bd
       -0.4160341 0.022020364 0.30834392 -0.0911297
000010 bc 37 c8 bd 15 ef 11 be a3 84 99 3e 47 e5 22 be
       -0.097762555 -0.14251359 0.29984006 -0.15907775
000020 90 aa 27 be 80 3b 4b 3e 76 50 89 be 36 ad 43 3e
       -0.16373658 0.19846916 -0.268192 0.19109043
000030 91 74 9c be 90 38 2f bd 1d 75 1c be 24 e8 21 3d
       -0.30557683 -0.04277855 -0.1527905 0.039528027
000040 ae 7d 60 3e e0 f4 78 3c c0 75 f8 3b d0 69 f4 bd
       0.21922943 0.0151951015 0.0075823963 -0.11934245
000050 4a 16 2d be a4 f7 f4 bd b4 11 d4 3d 08 fa 68 bd
       -0.16903034 -0.11961296 0.10354939 -0.056879073
000060 ce cc 5b 3e f0 7d 3a 3d 00 c6 64 3b ba 3a 49 be
       0.21464846 0.04553026 0.0034908056 -0.19651309
000070 c2 a1 02 3e 42 c4 95 be d8 bb fa bd 74 6e 44 3e
       0.12757018 -0.29251295 -0.122428596 0.1918276
000080 a8 40 05 3f 61 f0 1f 3e c0 6f 9b 3d d9 ea 4f be
       0.5205178 0.15619041 0.07589674 -0.20304431
000090 bc 97 62 be b6 b3 59 be d2 96 75 3e 0f c2 ba 3e
       -0.22128195 -0.2125996 0.23983315 0.3647618
0000a0 dd 7c 79 bd 43 d4 88 3d 11 03 a9 be dc 41 aa 3e
       -0.060910095 0.06681111 -0.33010152 0.33253372
0000b0 a6 3a df bd dd 60 2c 3f 66 0a 65 3e 98 5b 2d 3e
       -0.10899858 0.673353 0.22367248 0.16929471
0000c0 33 6d 7b 3e 08 4f 5b 3e 4c 89 db 3d a8 a5 89 be
       0.24553375 0.21416867 0.10719547 -0.26884198
0000d0 82 da 93 bd 38 d4 12 bd 4e 1e 1d 3e d8 f5 fa bd
       -0.072194114 -0.03584692 0.15343592 -0.12253922
0000e0 c6 5f 14 3e 26 dd 5b 3e 76 9f 0b 3e a6 aa 26 3e
       0.1448966 0.2147108 0.13635048 0.16276035
0000f0 60 a4 2c bd f4 1d 1b 3e 50 08 1e be 0f 41 8c 3e
       -0.042148948 0.15148145 -0.15432858 0.27393386
000100 e0 f7 04 bc 13 31 19 3b e1 8b 8e be 15 bf 95 3e
       -0.008115739 0.0023375198 -0.27841094 0.29247347
000110 60 39 35 bd 58 aa 68 3e ca d7 53 be f5 74 87 be
       -0.04424417 0.22721231 -0.20687786 -0.2645642
000120 30 53 4f bd 50 76 81 be 50 e5 78 3d 80 92 8b 3b
       -0.050616443 -0.25285578 0.060765564 0.0042594075
000130 ec 7e ed bd aa c0 4a 3e e6 c9 51 3e 10 f5 8e be
       -0.11596474 0.19800058 0.20487174 -0.27921343
000140 55 b5 81 be ca 70 3d 3e 92 68 ac be d0 f0 79 3d
       -0.25333658 0.18500057 -0.3367353 0.061020672
000150 32 7b ac bd 44 03 76 bd 57 b1 32 be 00 73 84 3a
       -0.08421935 -0.060061708 -0.17450462 0.0010105073
000160 fa 44 e5 bd 84 e4 8e be d4 13 7a be b0 a8 90 3d
       -0.11194797 -0.2790872 -0.24421626 0.070634246
000170 01 a1 8e 3e 40 5c ff bb 00 67 4a bb 86 08 c9 3e
       0.2785721 -0.0077929795 -0.0030884147 0.39264315
000180 eb 83 82 3e a0 08 3c bd 28 94 84 be b1 63 84 3e
       0.2549127 -0.045906663 -0.25894284 0.25857309

fc16.bias f4 [10]
000000 c9 b1 b4 3e de 75 ea be 7b 3e 91 be 36 25 e7 3e
       0.3529189 -0.4579305 -0.2836798 0.45145577
000010 8b ad 41 3e b0 d1 90 be 78 12 67 be b0 58 df bd
       0.18913858 -0.2828498 -0.22565639 -0.10905588
000020 b7 d2 d7 be 5e 1f 86 be
       -0.4215295 -0.26195806

fc17.weight f4 [10, 10]
000000 83 69 fd 3e b6 aa 77 3e c4 3a 6e be 60 2a 88 3e
       0.49494562 0.24186215 -0.23264605 0.2659483
000010 01 ef 3b bf b8 7e 06 3e d7 2b 5d be bd 05 25 be
       -0.73411566 0.13134277 -0.21598755 -0.1611547
000020 c0 17 16 be 2d 53 dd be c0 97 b0 3e 20 87 07 be
       -0.14657497 -0.4322752 0.34490776 -0.1323514
000030 e0 e8 6e 3d 6d e4 c5 3e 4c 93 08 3e e0 be 05 3d
       0.058327556 0.38650838 0.1333744 0.032652736
000040 69 e3 82 3c 40 5f 84 bb 4c 36 cd 3e e0 78 94 3e
       0.015977578 -0.004039675 0.40080488 0.2899847
000050 47 e7 ea bd 0c ff ab 3e 78 53 3a 3e 37 8a d0 bb
       -0.11469894 0.33593023 0.18195903 -0.0063641327
000060 db ca f2 3e 10 53 8b 3c d3 1d 82 3e bb 79 89 be
       0.4742039 0.01700738 0.2541338 -0.26850685
000070 8a f0 16 3e e4 91 06 3f 48 64 ee be 14 89 82 bd
       0.14740196 0.5256636 -0.46560884 -0.06373802
000080 96 7d bc bd 61 98 d3 be 32 f5 cb 3e 44 24 10 3e
       -0.09203641 -0.41327193 0.39835507 0.14076334
000090 4e bc 12 3c 3e 3a 63 3e 66 ae fe bd 2f d1 8c 3e
       0.008956028 0.22190186 -0.124356076 0.27503344
0000a0 52 33 8a be 00 d5 cd 3d 1c 8d 98 be 00 bd 8d ba
       -0.2699228 0.10050392 -0.29795158 -0.0010813773
0000b0 7d f0 90 bd 70 5a 35 be fc 8f c2 3d d0 c9 7b 3d
       -0.070771195 -0.1771028 0.09500119 0.06147176
0000c0 ae b4 58 3e 42 9e a5 3d 5e 07 83 be 3c 44 70 be
       0.21162674 0.08086826 -0.25591558 -0.2346353
0000d0 72 b2 ed bd 38 f4 68 be ab f9 90 bb 67 29 54 be
       -0.11606301 -0.22749412 -0.004424294 -0.20718919
0000e0 9d da 79 be 98 a1 bc 3d fa 6d 43 3e 21 d7 32 be
       -0.243998 0.09210509 0.19084921 -0.17464878
0000f0 bc 55 a1 be f0 0f 37 3d d4 f1 25 3e f2 f4 7c 3e
       -0.31510723 0.044692934 0.16205531 0.24702814
000100 a0 cb f5 3c a6 cd 60 3e c4 c4 90 be f9 e4 9a 3e
       0.030004323 0.21953449 -0.2827512 0.30252817
000110 b4 19 51 be 7e 07 5d be 69 62 0a be cf be 15 3e
       -0.20419961 -0.2158489 -0.13514103 0.14623569
000120 c2 d6 47 3e 42 0e 20 bf 18 0d 18 3f a9 8d 99 3e
       0.19515517 -0.62521756 0.5939498 0.2999089
000130 c5 df 15 3e 57 9c 82 3e 11 e7 b9 be 79 98 9a 3e
       0.14636143 0.25509903 -0.36309102 0.30194452
000140 fa 7a ff 3e 7d 36 d7 3d ad e7 2c be 63 ef 1a 3f
       0.4989851 0.1050844 -0.16885252 0.60521525
000150 7a 57 0d be ce d6 2c be 88 a7 04 3d 22 f6 80 be
       -0.13802901 -0.16878816 0.032386333 -0.25187784
000160 57 a2 03 be d6 33 7c bc b3 b6 55 bb 4d ab 2d 3e
       -0.12854896 -0.015393218 -0.0032610118 0.16959877
000170 18 dc 29 bd 38 1b a6 be 8f dc ab be 1d ee 9a 3e
       -0.041469663 -0.3244264 -0.3356671 0.3025979
000180 0c 5d 8c be 48 31 c3 3d bf 7f 83 3e 35 43 17 3e
       -0.2741474 0.09530884 0.256834 0.14771731

fc17.bias f4 [10]
000000 d1 fa 35 be d9 14 00 3e 2d f0 5f be 74 f3 48 3e
       -0.1777146 0.12507953 -0.21868964 0.1962412
000010 c0 b8 d3 be 7f 32 a4 be 48 2e 58 be 07 7c f1 3d
       -0.4135189 -0.32069775 -0.21111405 0.117912345
000020 f1 51 05 3f 39 d5 f1 3d
       0.5207816 0.11808247
